SPEECH-MODEL-WORKSPACE/models/model_no_quant.tflite (tflite, 42428 bytes, 6 tensors)

arith.constant f4 [8]
0	0x3fc80474	1.5626359
1	0xbde83eed	-0.11340127
2	0xbed111fe	-0.4083404
3	0xbee6e536	-0.4509675
4	0x3c575aa0	0.013144165
5	0xbe9f653e	-0.3113193
6	0x3eaabb83	0.33346185
7	0x3fdbb7d8	1.716548

arith.constant1 f4 [8, 8, 8, 1]
0	0xbb6894b2	-0.003548902
1	0xbb16399b	-0.002292252
2	0xb8a0e6f5	-7.6724136e-05
3	0xbbb90e84	-0.0056474824
4	0xba8caf2b	-0.0010733356
5	0xbb205843	-0.002446667
6	0x3b93320d	0.0044920505
7	0x3a8bef1d	0.001067612
8	0xbb611e1a	-0.0034350217
9	0xbb70e50f	-0.0036757623
10	0xbbc3b0cf	-0.005972005
11	0x3abb4b1e	0.0014289354
12	0xbb332040	-0.0027332455
13	0x3b94b253	0.0045378595
14	0x3b56365a	0.0032686205
15	0x3ba185b7	0.00492927
16	0xbc071a66	-0.00824604
17	0xbb189567	-0.002328241
18	0x3ab3c02a	0.0013713886
19	0xba8a97d4	-0.0010573813
20	0x3bec60fc	0.00721371
21	0x3b9b1e97	0.004733871
22	0xbb3de892	-0.0028977734
23	0x3a035931	0.0005010544
24	0xbbaa0e5f	-0.0051897014
25	0xbb53dcbc	-0.0032327613
26	0xb9e1cfd7	-0.00043070197
27	0x3b7d0e5a	0.003861329
28	0x3b69663b	0.0035613913
29	0x3ba8115a	0.0051290216
30	0xba2551f8	-0.0006306465
31	0x3b910048	0.0044250824
32	0x3b7be310	0.00384349
33	0xbb3355ff	-0.002736449
34	0x3bf9f580	0.007628143
35	0x3bd5abb3	0.0065207123
36	0xba84d5a3	-0.001013447
37	0x3ad6b532	0.0016380905
38	0xbaf2d9db	-0.0018528061
39	0x3ba25ead	0.004955134
40	0x3b42ff2d	0.0029754147
41	0x3acb474d	0.001550892
42	0x3bdf3638	0.0068118833
43	0xbb4da445	-0.003137843
44	0x3ae7ef77	0.0017695267
45	0x3b371afe	0.0027939673
46	0xbb0ca996	-0.0021463386
47	0x3b7c5201	0.0038501027
48	0x3c1ce051	0.009574966
49	0x3b902aac	0.004399618
50	0x3b98cf2c	0.0046633687
51	0xba6f5a24	-0.00091305585
52	0xbbb68cf2	-0.005571001
53	0x3a4f2c28	0.0007903003
54	0xbbc8327d	-0.0061095343
55	0x3b8e794a	0.004347955
56	0x3c51b59f	0.0127996495
57	0x38e1a469	0.0001075946
58	0x3b66bfa4	0.0035209442
59	0xbb58b821	-0.0033068734
60	0xbbd6428d	-0.006538695
61	0xba65bb51	-0.0008763569
62	0x3b1cd046	0.0023927852
63	0x3c09c63b	0.008409078
64	0x3c3cde0e	0.011527551
65	0x3bb8700d	0.005628592
66	0x3bbcbbbd	0.005759685
67	0xbbc7c21c	-0.0060961377
68	0xbb6d29a8	-0.003618816
69	0x3b27a10f	0.0025578176
70	0xbb5c882a	-0.0033650496
71	0x391eb56c	0.00015135639
72	0x3ab4c272	0.0013790859
73	0x3b01ed24	0.0019825185
74	0xbb1dd9a9	-0.0024086034
75	0x3ab63ed5	0.0013904223
76	0xbaeec638	-0.0018217033
77	0xbb8b78c5	-0.00425634
78	0x3b5c28cf	0.003359366
79	0xbb5dfad4	-0.003387143
80	0x3bf94e29	0.0076081944
81	0x3b1becce	0.002379227
82	0xbc30ac32	-0.010783242
83	0xba4db5f3	-0.0007847242
84	0x3af66d89	0.0018800955
85	0x3aa2df84	0.0012426232
86	0xbb680d14	-0.0035408186
87	0xbb9eed29	-0.004850049
88	0x3bf2d68c	0.00741083
89	0xbb101d96	-0.002199029
90	0xbbdbe009	-0.0067100567
91	0x3b0c7a11	0.0021435062
92	0x3bb15b94	0.0054125283
93	0xbaf9b1f3	-0.0019050225
94	0xba9f451b	-0.0012151332
95	0xbbb21b14	-0.005435357
96	0x3bca4730	0.006173037
97	0x3b7a6988	0.0038209874
98	0x3bbe0b71	0.0057997038
99	0x3ba89290	0.0051444247
100	0xba1b3cbc	-0.0005921831
101	0xbb616ff1	-0.0034398998
102	0xbb4ac4c4	-0.0030940035
103	0x3aac6a3e	0.0013154221
104	0x3c151f3b	0.009101684
105	0x3b9f8f9e	0.0048694154
106	0x3b971383	0.0046104803
107	0x3a649052	0.0008719015
108	0xbbae8255	-0.0053255954
109	0xbb9054c7	-0.0044046375
110	0xbc15f949	-0.0091536725
111	0x3b0fff31	0.0021972174
112	0x3c39e058	0.011344992
113	0x3c42e9df	0.0118965795
114	0xbb111ca5	-0.0022142318
115	0xbb65788e	-0.0035014483
116	0xbba4411d	-0.005012645
117	0xbbcfb53f	-0.006338745
118	0xbb92ae51	-0.0044763465
119	0xbb054b4f	-0.0020339077
120	0x3ca51efb	0.020156374
121	0x3b6ea089	0.0036411604
122	0xbc2998a1	-0.010351331
123	0xbc40f590	-0.011777297
124	0xb6d024fe	-6.2031895e-06
125	0xbc23f9ed	-0.010008317
126	0x3b132514	0.002245252
127	0xbb82221a	-0.0039713504
128	0xbc3e7c4b	-0.011626313
129	0xbc448c32	-0.011996316
130	0xba9c4702	-0.0011923017
131	0x3b3a9754	0.0028471546
132	0x3bcc741d	0.0062394277
133	0x3b08a1d4	0.002084841
134	0x3c17a9ff	0.009256839
135	0x3c371192	0.011173623
136	0x3b084cf4	0.002079782
137	0xbb04a935	-0.0020242457
138	0xba7699f4	-0.0009407096
139	0xbabdb7a4	-0.0014474285
140	0x3b12c8f2	0.0022397605
141	0x3b80f7f9	0.0039358106
142	0x3c1c4024	0.009536777
143	0x3bdaa2b7	0.006672229
144	0xbbb7feb5	-0.0056150802
145	0xbb2456f3	-0.002507624
146	0xbac7cf54	-0.0015244284
147	0x3aa22d4d	0.001237312
148	0x384cc6cd	4.8822538e-05
149	0x3a2bc5c8	0.0006552604
150	0x3c2edcc2	0.01067275
151	0x3bef94e9	0.0073114526
152	0xbbd7d29a	-0.006586385
153	0xbba93f2d	-0.005165002
154	0xbb75d289	-0.0037509522
155	0xba08ccae	-0.0005218488
156	0x3b7e66a7	0.003881851
157	0x3af2fd9a	0.0018538714
158	0x3b870bbb	0.0041212714
159	0x3b96a649	0.0045974595
160	0xbc297d32	-0.01034479
161	0xbb4a2c89	-0.00308493
162	0xbc0a2ac5	-0.008433049
163	0xbbbea5b9	-0.0058180955
164	0xbbb36f39	-0.0054759053
165	0x3a8bbb84	0.0010660742
166	0x3ac31c0e	0.001488568
167	0xba4721e0	-0.00075962953
168	0xbad01142	-0.0015874284
169	0x3840a7c5	4.5932615e-05
170	0xbba0c905	-0.004906776
171	0xbb41ae5b	-0.0029553387
172	0x3a4576d1	0.00075326586
173	0xbb56cd39	-0.003277613
174	0xba07abe7	-0.0005175457
175	0x3b3471f1	0.0027533735
176	0xbb34794c	-0.002753812
177	0xbb0cded1	-0.0021495114
178	0x3afbeda0	0.0019220598
179	0xba076b73	-0.00051658525
180	0x3aba8fdc	0.0014233547
181	0xbb594d21	-0.0033157545
182	0xbae01df7	-0.0017098774
183	0x3c29299b	0.010324861
184	0xbb9e55ec	-0.00483202
185	0x3af2b6ac	0.0018517575
186	0xbb25f31d	-0.0025321909
187	0xbacfaaca	-0.0015843746
188	0xbb709526	-0.0036709993
189	0xbb3869b8	-0.0028139185
190	0x3bc17bcb	0.00590465
191	0x3b739c27	0.0037171931
192	0x3b90c5a8	0.0044180937
193	0xbb0d0e0f	-0.0021523272
194	0xbba95384	-0.0051674265
195	0xbb0be53c	-0.002134635
196	0xbc170ec8	-0.009219833
197	0xbbfa746e	-0.007643274
198	0xbbb13e9c	-0.005409075
199	0xbb7a271d	-0.0038170286
200	0xbaedbb23	-0.0018137436
201	0x3bd2a846	0.006428751
202	0xbbb02ca4	-0.0053764153
203	0xbbb579a1	-0.005538181
204	0xbbfe98ca	-0.0077696787
205	0xbb9a75a9	-0.004713733
206	0xbb888061	-0.0041656946
207	0xba8ff41b	-0.0010982783
208	0xbb64d88e	-0.0034919116
209	0x3b168a4b	0.0022970613
210	0xbb9b18f9	-0.0047332016
211	0xbbd6ae58	-0.006551545
212	0xbc073d55	-0.008254369
213	0xba06448b	-0.0005121908
214	0x3b9b7987	0.004744712
215	0x3ae6482b	0.0017569115
216	0xbbde5ca4	-0.006785946
217	0xbb11e18c	-0.002225968
218	0xbaa5d339	-0.001265145
219	0xbb7a6e72	-0.0038212803
220	0x3b6a7cd1	0.0035779963
221	0x3ace3ba6	0.0015734329
222	0x3c284aac	0.010271709
223	0x3b2e6736	0.0026611811
224	0xbb75af0f	-0.0037488376
225	0xbb92fd3a	-0.0044857534
226	0xbb9690c0	-0.0045948923
227	0x3b198aeb	0.0023428749
228	0xb7747c47	-1.4572469e-05
229	0x3c3d4b6c	0.0115536265
230	0x3b928a84	0.0044720788
231	0x3ba5884e	0.005051649
232	0xbb2075fb	-0.0024484384
233	0xbbdb41c3	-0.006691189
234	0x3bbc528c	0.005747145
235	0x3ac90f8a	0.0015339714
236	0x3b0010d9	0.0019541292
237	0x3c244c60	0.010027975
238	0x3b21a8df	0.0024667305
239	0x3bf70efb	0.0075396276
240	0xbaed302e	-0.0018096024
241	0x3a23eddd	0.0006253401
242	0x3bd71231	0.006563448
243	0x3bc71a67	0.0060761455
244	0x3bf13ef2	0.00736224
245	0x3ba7205b	0.0051002926
246	0x3bc6016a	0.006042649
247	0xbb44eea9	-0.003004948
248	0x3acdf7f6	0.0015714157
249	0xb9b4dd46	-0.00034497137
250	0x3be54160	0.0069963187
251	0x3bc10f12	0.005891689
252	0xbb077177	-0.0020666996
253	0x3ba65d5c	0.0050770473
254	0xba269342	-0.00063543406
255	0xbc3dcd29	-0.0115845585

arith.constant2 f4 [3, 32]
0	0xbdaa1dac	-0.08306441
1	0x3e69ee5a	0.2284483
2	0x3e186459	0.1488203
3	0xbdfa2a77	-0.12215131
4	0xbf29416e	-0.6611546
5	0xba8b7877	-0.001064076
6	0xbeba918a	-0.36439162
7	0x3d0a73da	0.03380189
8	0xbe35d138	-0.17755592
9	0x3e0ad438	0.13557518
10	0x3e8251bd	0.25452986
11	0x3e6414d4	0.2227357
12	0x3e0df829	0.13864197
13	0x3e424e70	0.18975234
14	0x3ec6231d	0.38698664
15	0xbdb5166e	-0.08842169
16	0x3ebe3867	0.37152407
17	0x3f0da271	0.5532599
18	0x3eb13c04	0.346161
19	0x3ebf871e	0.37407774
20	0x3e63eeb3	0.22259025
21	0x3ed88090	0.42285585
22	0x3eadfe9f	0.33983323
23	0x3db39667	0.08768921
24	0xbee6eaf8	-0.45101142
25	0x3ed61b9d	0.41817942
26	0xbe31585d	-0.17318864
27	0x3c068941	0.008211435
28	0xbec64ff7	-0.38732883
29	0x3eb7d3fa	0.35903913
30	0x3db70f65	0.08938483
31	0x3f1ac9a6	0.6046394
32	0x3f079d63	0.5297453
33	0x3e9c88ea	0.30573207
34	0x3ebb613d	0.36597624
35	0x3eb918f1	0.3615184
36	0x3e5e295d	0.21695466
37	0x3e01ca7c	0.12674898
38	0x3efead07	0.49741384
39	0xbea8bed3	-0.32958087
40	0xbf4451e1	-0.7668744
41	0xbf0487fd	-0.5177
42	0xbd6e03f1	-0.058109228
43	0x3c9f81d8	0.019471094
44	0xbe61ab43	-0.22037987
45	0xbee5e7ee	-0.4490351
46	0x3c9e809e	0.019348439
47	0xbf19a878	-0.6002269
48	0x3ed17468	0.40909123
49	0x3c2f6ed6	0.010707578
50	0xbc5e6dcf	-0.013575985
51	0xbf10674f	-0.56407636
52	0x3e080205	0.1328202
53	0x3ee01808	0.43768334
54	0x3e9d3619	0.30705336
55	0xbf5104cc	-0.81647944
56	0x3eac1e76	0.3361699
57	0xbd809ddf	-0.062801115
58	0xbe8e6ccb	-0.27817377
59	0xbf3644cd	-0.7119873
60	0xbe8fe468	-0.28103948
61	0xbd869f54	-0.06573358
62	0xbcb166c8	-0.021655455
63	0x3ec45eee	0.38353676
64	0xbf109a5a	-0.5648552
65	0xbec29b95	-0.38009325
66	0x3edac763	0.42730245
67	0x3e4024f6	0.187641
68	0x3f18da50	0.5970812
69	0x3e6c033d	0.2304811
70	0xbf50471e	-0.81358516
71	0xbef86944	-0.4851781
72	0x3ef4e6c7	0.4783232
73	0xbf23a11e	-0.6391772
74	0xbf085ca3	-0.5326635
75	0x3da0413e	0.07824944
76	0xbd9d7669	-0.076886006
77	0x3e456235	0.19275744
78	0xbe7fe223	-0.24988608
79	0xbe3d7eaa	-0.1850535
80	0x3ce2cd52	0.027685795
81	0xbee788cb	-0.45221552
82	0xbe2717f1	-0.16317727
83	0xbea59b9f	-0.32345292
84	0xbeb6ef22	-0.3572932
85	0xbeb9ef28	-0.36315274
86	0xbd1ba39a	-0.03799782
87	0x3e6c0c4c	0.23051566
88	0xbecde068	-0.4021027
89	0xbea33ae5	-0.3188087
90	0x3f0ded2e	0.5544003
91	0x3e31413a	0.17310038
92	0x3eb0d502	0.34537512
93	0xbe84b543	-0.25919542
94	0xbf15e264	-0.5854857
95	0xbdb5cb52	-0.08876671

arith.constant3 f4 [32, 288]
0	0x3db3c2b0	0.08777368
1	0xbcd708ba	-0.026249278
2	0x3e871e8d	0.26390496
3	0x3db3a2bc	0.087712735
4	0x3e198b0c	0.14994448
5	0x3d97287a	0.07380767
6	0x3dbe4100	0.092897415
7	0xbe1b8ea7	-0.15191136
8	0xbe419904	-0.18906027
9	0x3dd6a509	0.10480697
10	0x3d8d7580	0.06907177
11	0x3d155f67	0.036467936
12	0xbdad48d0	-0.084611535
13	0x3e1389df	0.14408062
14	0x3ca99b02	0.020703796
15	0x3db85f06	0.09002499
16	0xbe5f9983	-0.21835904
17	0x3e9f0837	0.31060955
18	0xbdc6d13b	-0.09707876
19	0xbdaaa2d2	-0.08331837
20	0xbbe12640	-0.006871015
21	0xbe4eebc6	-0.20207128
22	0xbe01633d	-0.12635513
23	0xbe452ab4	-0.19254571
24	0xbe7af067	-0.24505769
25	0x3e018ec0	0.12652111
26	0xbd59b7e0	-0.053153872
27	0xbd9cdba0	-0.07659078
28	0xbe930a7d	-0.2871894
29	0x3d2a51ee	0.04158204
30	0xbe29dcaa	-0.16588083
31	0xbdd2794c	-0.10277042
32	0xbdfff85d	-0.124985434
33	0x3d61f44b	0.055164617
34	0xbee29c08	-0.44259667
35	0xbd14ed61	-0.036359195
36	0xbf0c5cca	-0.54829085
37	0xbe3b4a14	-0.18289977
38	0x3da3b868	0.07994157
39	0xbd396461	-0.045261744
40	0xbded90f4	-0.11599913
41	0xbd7eaa3b	-0.062174063
42	0x3d3781ef	0.04480165
43	0x3da8547b	0.08219238
44	0x3bfe3c24	0.007758634
45	0x3e1e1006	0.154358
46	0xbdd28c06	-0.102806136
47	0xbf0fcca6	-0.56171644
48	0xbe8a6794	-0.2703215
49	0x3d9b5c54	0.075859696
50	0xbd059491	-0.032612387
51	0xbe0ba43d	-0.1363687
52	0x3c85d35c	0.016336136
53	0xbd8cb381	-0.06870175
54	0x3e0960c4	0.1341582
55	0xbd9b491b	-0.07582303
56	0xbdfc46a7	-0.12318163
57	0x3d25e072	0.04049725
58	0x3e6cf421	0.23140003
59	0x3d5f39f7	0.05449864
60	0xbce94f7c	-0.028480284
61	0x3df0b12f	0.11752545
62	0x3d95bb6c	0.073111385
63	0x3da0bf49	0.07848985
64	0xbdf33599	-0.11875457
65	0x3e0099fe	0.12558743
66	0x3c29c310	0.010361448
67	0x3d2a7d8d	0.04162364
68	0xbd034f7d	-0.032058228
69	0xbdfdc966	-0.12391929
70	0xbd9297e1	-0.07157875
71	0xbe75b4e6	-0.23994789
72	0xbdd076df	-0.10178923
73	0xbb229a22	-0.0024811109
74	0xbe6153a0	-0.22004557
75	0xbc95a300	-0.018266201
76	0xbd8383d0	-0.064216256
77	0xbcf9b4b3	-0.030481672
78	0xbe1b373e	-0.15157792
79	0xbe32cf06	-0.17461786
80	0xbe4a602b	-0.19763248
81	0x3e07f2ac	0.13276166
82	0xbe6cf7aa	-0.23141351
83	0xbd60262c	-0.054723904
84	0x3dc677e6	0.096908376
85	0x3e1b8c90	0.15190339
86	0x3d500c93	0.05079324
87	0x3dbf999a	0.09355469
88	0xbd1235e3	-0.03569592
89	0xbd2c4155	-0.042054493
90	0x3dc3673e	0.09541176
91	0x3df1d362	0.11807896
92	0x3da47249	0.08029611
93	0x3e25f8ef	0.16208242
94	0xbe3332c9	-0.17499842
95	0xbe91fd75	-0.28513685
96	0xbe439cdf	-0.1910281
97	0xbcbe4c2d	-0.023229683
98	0x3d8dc9a0	0.069232225
99	0xbd9744bf	-0.07386159
100	0x3e2074da	0.15669575
101	0xbdf24ec1	-0.11831427
102	0xbe3bceca	-0.18340603
103	0xbde02fd5	-0.10946623
104	0xbd9c80da	-0.07641764
105	0xbe3c2514	-0.18373519
106	0xbb31a57c	-0.0027106693
107	0x3d27d9f2	0.040979333
108	0x3dbc7cd3	0.09203496
109	0xbdcb2193	-0.09918513
110	0xbd8b9749	-0.06815965
111	0x3dd5c605	0.1043816
112	0xbe23cb97	-0.15995632
113	0x3d754aaf	0.059885677
114	0x3d62254b	0.055211347
115	0x3ce3a429	0.027788239
116	0xbd27240b	-0.040805858
117	0x3c7fab0e	0.015604747
118	0xbe081eb3	-0.13292961
119	0xbda15f9b	-0.078795634
120	0xbe188c22	-0.14897206
121	0x3ce3e2d4	0.027818121
122	0xbe9bc5ef	-0.3042445
123	0x3d764c23	0.060131203
124	0xbc5a5e41	-0.013328136
125	0xbe0580f1	-0.13037468
126	0xbe3780d0	-0.17920232
127	0xbddd873e	-0.10816811
128	0xbdef91a8	-0.116977036
129	0x3db56229	0.08856613
130	0x3b498afd	0.003075301
131	0x3dc91971	0.09819306
132	0x3d8d9d5a	0.06914778
133	0x3ddc5213	0.10757842
134	0xbaee3542	-0.0018173831
135	0x3c05785a	0.00814637
136	0xbb813bcf	-0.0039438973
137	0xbd5023bd	-0.050815333
138	0x3be9f442	0.0071397135
139	0x3d8a673b	0.06757971
140	0x3d3b02a0	0.0456568
141	0x3cb522e4	0.022111364
142	0xbe5b45f8	-0.2141341
143	0xbe90f4a2	-0.2831164
144	0xbe41b046	-0.18914899
145	0xbc30410f	-0.010757699
146	0x3e8b7d39	0.27243975
147	0x3cc987e5	0.024600932
148	0x3e0aa551	0.13539626
149	0x3dd1762b	0.10227617
150	0x3bb71136	0.0055867685
151	0xbda427ae	-0.08015381
152	0xbd869004	-0.065704376
153	0xbe378d0f	-0.17924903
154	0x3c8220ea	0.015884835
155	0x3e1e8480	0.15480232
156	0x3c05f8e3	0.008177015
157	0x3e3b550a	0.18294159
158	0xba8cf2bd	-0.0010753494
159	0x3d5523a3	0.05203594
160	0xbdb186b3	-0.0866827
161	0xbe2f6eb8	-0.1713208
162	0x3df98f5f	0.12185549
163	0x3d53b5f8	0.05168721
164	0xbdd27838	-0.10276836
165	0x3d1ec9a1	0.038766507
166	0xbdd7d2a9	-0.10538227
167	0xbda0db51	-0.07854331
168	0xbd995db4	-0.074885756
169	0x3dda0e84	0.106473
170	0xbe85bf36	-0.26122445
171	0xbdc57aff	-0.096426
172	0xbe1e21c3	-0.15442567
173	0xbd972850	-0.07380736
174	0xbe04661d	-0.12929578
175	0xbd7674aa	-0.060169853
176	0xbdc48a7b	-0.095967256
177	0xbdafee56	-0.08590381
178	0x3cbcf65e	0.023066696
179	0x3cb8a2a3	0.022538489
180	0x3d942f18	0.07235545
181	0x3d6619a8	0.05617681
182	0x3da27f71	0.07934464
183	0x3e10bb8d	0.14134045
184	0xbdda1467	-0.10648423
185	0xbe021ce9	-0.12706341
186	0x3d3c9203	0.046037685
187	0x3d68f82c	0.0568773
188	0xbd1761f6	-0.036958657
189	0x3de78cf5	0.11306182
190	0xbe5becd0	-0.21477056
191	0xbe806a72	-0.2508121
192	0xbd056589	-0.032567535
193	0xbc5c8942	-0.013460459
194	0x3dd71c59	0.10503454
195	0xb9f63818	-0.0004696257
196	0x38ceffd4	9.870497e-05
197	0x3e09d509	0.13460173
198	0xbd1936f6	-0.03740593
199	0xbd12ce44	-0.03584124
200	0xbd1a6a41	-0.037698988
201	0xbdb6f59a	-0.089335635
202	0xbce18e86	-0.02753378
203	0x3e05d9af	0.13071321
204	0x3d8517b7	0.06498664
205	0x3dc285f3	0.09498205
206	0x3d7ad12e	0.061234646
207	0x3dae9841	0.08525134
208	0x3d6bdde5	0.057584662
209	0xbe168465	-0.14698942
210	0x3d99e6f5	0.07514755
211	0xbe033ed3	-0.12816934
212	0x3dd78f73	0.10525408
213	0xbe2d4e42	-0.16924384
214	0xbd76ff5f	-0.060302135
215	0xbcf5ea98	-0.03001909
216	0x3d216eea	0.039412417
217	0xbdf40c9c	-0.119164675
218	0xbe4d3c02	-0.20042422
219	0xbe08a53d	-0.13344283
220	0xbe3ecdb0	-0.18633151
221	0x39d5b007	0.00040757676
222	0xbd7f63de	-0.0623511
223	0xbe78ed4a	-0.24309269
224	0x3d4327df	0.047645446
225	0xbdcc57ea	-0.09977706
226	0xbd34533b	-0.044024687
227	0x3e0d26c3	0.13784318
228	0x3b12c89c	0.0022397405
229	0x3de95fe1	0.113952406
230	0x3e7beba5	0.2460161
231	0x3e2a95f1	0.1665876
232	0x3ce71970	0.028210372
233	0x3d4acbf8	0.049510926
234	0x3d5e5738	0.054282397
235	0x3d0a2a81	0.03373194
236	0xbb0f3a23	-0.002185472
237	0x3b07e98a	0.0020738565
238	0xbd690fa9	-0.0568997
239	0xbe4ad174	-0.19806463
240	0xbda808cd	-0.082048036
241	0x3d0b5a23	0.034021508
242	0x3c7abffa	0.01530456
243	0xbe32b035	-0.1745003
244	0x3d7ec6ae	0.062201194
245	0xbe0d2977	-0.13785349
246	0xbd7f2ff9	-0.06230161
247	0x3b87491f	0.0041285898
248	0xbd1a90d3	-0.03773577
249	0xbe2e5829	-0.17025818
250	0x3d193455	0.037403423
251	0xbd4c63c6	-0.04989984
252	0xbdaaf03b	-0.083466016
253	0x3e1fc751	0.15603377
254	0x3c787e69	0.015166857
255	0x3c8868b6	0.016651493

arith.constant4 f4 [32]
0	0x3dbaf3e1	0.091285475
1	0x3df2aa61	0.118489034
2	0xbdb20e0b	-0.08694085
3	0x3d0f314b	0.03495912
4	0x3cfda2d2	0.030961428
5	0x3ad2aa7e	0.0016072539
6	0x3e377c1d	0.17918439
7	0x3d89f586	0.06736283
8	0xbaaa4825	-0.0012991471
9	0x3dae4801	0.085098274
10	0xbccadb77	-0.024762852
11	0x3ca63707	0.020289911
12	0xbca18a9f	-0.01971942
13	0xbd8cd603	-0.06876757
14	0xbd929674	-0.07157603
15	0x3c72167a	0.014775867
16	0x3e0cd55f	0.1375327
17	0x3c9f1fb9	0.019424306
18	0x3c92908b	0.01789119
19	0x3cf51d77	0.029921276
20	0x3e66637f	0.22498892
21	0xbd89a2d2	-0.06720509
22	0x3c6d24ad	0.014474076
23	0xbdde7fc7	-0.10864215
24	0xbc179f81	-0.009254337
25	0x3dd04408	0.10169226
26	0x3e0c0aab	0.13675945
27	0xbdefe9a7	-0.117144875
28	0xbdf43fb6	-0.119262144
29	0xbc632062	-0.013862701
30	0x3e3adca6	0.18248233
31	0x3e678fc3	0.22613434

arith.constant5 f4 [3]
0	0xbd3cf06d	-0.046127725
1	0x3ceb1496	0.02869634
2	0x3ca95cfd	0.020674223
